Lstm_converted2.tflite (tflite, 382120 bytes, 18 tensors)

arith.constant5 f4 [400]
00000000: 4624 bb3e 73d3 9a3d 7ba4 0dbe fa34 083f
00000010: 85f2 733e e229 683e 9eab 553e 480c 2e3e
00000020: 8d36 923e d9db c73e abc2 313f 764c b63e
00000030: 9039 8b3e 7665 f13e ba2d d83e 5e8a 2c3e
00000040: f523 ef3e 56ee a03e f0f2 873e 67f2 923e
00000050: 5623 a23e 6a51 ae3d 7407 493f c447 cc3e
00000060: 2123 023e af21 b83e dbae eb3e 3b7b 593e
00000070: 5cac 133f 9113 9f3e 48bd 0d3f 377f c73c
00000080: 2eae cf3e 6302 bb3e 50b0 803f f452 143f
00000090: 7db6 0d3f 5507 f53e 5f27 8f3e 4fc9 5f3f
000000a0: 5f96 063f 44b7 963e 5849 9b3e 5a08 0b3e
000000b0: 8c29 babe db51 34be 3067 603e 467d 01bd
000000c0: b18f b13e 0ff0 ed3e 8ab5 893e 8f35 1d3d
000000d0: 49e0 9f3e 9203 663d 07fb df3d 3d8c 4f3f
000000e0: d504 1c3f cc21 9d3e 2520 e83d bcb0 813e
000000f0: 6c6f 8d3d b086 ce3e 4472 993e 4a7c 8c3e
00000100: 89b0 7abc d0bb 883e e777 ac3d 3f72 083f
00000110: 6629 dd3e 6af6 a53c a6a3 703e 8bcc 933e
00000120: 8b7d dd3e e11b 5f3c 4b09 003f 6753 023f
00000130: 166f 863e fcf9 e03e c7ec 313f d9c6 133e
00000140: b49b b5bb a9fd cb3e e9af 303e 85ab 163f
00000150: 39f3 1e3e b7ae a739 130a 4c3f 6fb3 3f3f
00000160: dc09 363d 830d f93e 1aa2 ee3e 2a09 1e3f
00000170: 9e8f d23e 9af6 a33e 84fb c03d dd4f 433e
00000180: 3e19 b93e 4f04 eebc 0e0d fe3e a1eb c13e
00000190: 0000 803f 0000 803f 0000 803f 0000 803f
000001a0: 0000 803f 0000 803f 0000 803f 0000 803f
000001b0: 0000 803f 0000 803f 0000 803f 0000 803f
000001c0: 0000 803f 0000 803f 0000 803f 0000 803f
000001d0: 0000 803f 0000 803f 0000 803f 0000 803f
000001e0: 0000 803f 0000 803f 0000 803f 0000 803f
000001f0: 0000 803f 0000 803f 0000 803f 0000 803f
00000200: 0000 803f 0000 803f 0000 803f 0000 803f
00000210: 0000 803f 0000 803f 0000 803f 0000 803f
00000220: 0000 803f 0000 803f 0000 803f 0000 803f
00000230: 0000 803f 0000 803f 0000 803f 0000 803f
00000240: 0000 803f 0000 803f 0000 803f 0000 803f
00000250: 0000 803f 0000 803f 0000 803f 0000 803f
00000260: 0000 803f 0000 803f 0000 803f 0000 803f
00000270: 0000 803f 0000 803f 0000 803f 0000 803f
00000280: 0000 803f 0000 803f 0000 803f 0000 803f
00000290: 0000 803f 0000 803f 0000 803f 0000 803f
000002a0: 0000 803f 0000 803f 0000 803f 0000 803f
000002b0: 0000 803f 0000 803f 0000 803f 0000 803f
000002c0: 0000 803f 0000 803f 0000 803f 0000 803f
000002d0: 0000 803f 0000 803f 0000 803f 0000 803f
000002e0: 0000 803f 0000 803f 0000 803f 0000 803f
000002f0: 0000 803f 0000 803f 0000 803f 0000 803f
00000300: 0000 803f 0000 803f 0000 803f 0000 803f
00000310: 0000 803f 0000 803f 0000 803f 0000 803f
00000320: 1140 e7bc d21f 96be d4ab 12be 1fd9 353c
00000330: 830d 753e dc89 2d3d a072 e0bd 6a68 8e3e
00000340: e787 14be 9fc4 c03d 5032 433e fb75 04bd
00000350: 9ad6 cdbd 9910 27bb 83e3 6e3e d6be 28bd
00000360: f757 bbbd e326 2ebe a2ba b9bb ea6e 2abe
00000370: 2757 cb3e 4a4c 45bd 3c2d f3bd c6a3 a53e
00000380: dc1e 52bd 2be9 1a3e da99 a6bd c459 44bd
00000390: 7e7c 63be a605 e0bd 405d d3bd bb1b 963d
000003a0: 0469 60bd a0c6 9bbd 4934 b43e 6b39 563e
000003b0: b580 673e 1f3c 1cbf 9e3d 73be f694 2dbe
000003c0: b428 873e 2fae 893d 9233 f4be bc54 2d3d
000003d0: d512 1f3e 00fd 81bc 5a00 12be 1b72 52be
000003e0: 5cab bd3d 9a1b 11be fcf3 d7bd fb2f b43d
000003f0: 8590 713d 3ea3 b5bc 6eac b3bd 693e 5d3d
0.36551112 0.07559862 -0.13832276 0.53205836 0.23822983 0.22672227 0.20866248 0.16996872
0.28557244 0.39034918 0.69437665 0.3560521 0.27192354 0.4714772 0.42222387 0.16849658
0.4670712 0.31431836 0.26552534 0.28700563 0.31667584 0.08511622 0.78527 0.39898503
0.12708713 0.359632 0.46031842 0.21238415 0.57684875 0.31069615 0.55366945 0.024352653
0.40562576 0.36525258 1.0053806 0.57939076 0.5535658 0.47857156 0.27959725 0.8741655
0.525732 0.29436696 0.30329394 0.13577405 -0.36359823 -0.1760935 0.21914363 -0.03161361
0.3467994 0.46472213 0.26896316 0.038381156 0.31225803 0.05615575 0.109365515 0.8107336
0.60944873 0.30689847 0.11334256 0.2533015 0.06906018 0.40337133 0.2996999 0.27438575
-0.015300878 0.2670579 0.08421307 0.53299326 0.43195647 0.020259101 0.23499927 0.2886699
0.43259844 0.013617487 0.5001418 0.5090851 0.26256627 0.43940723 0.6950192 0.14431323
-0.005542243 0.39841965 0.17254604 0.5885547 0.1552247 0.00031982895 0.7970287 0.7488317
0.044442996 0.4864312 0.4660805 0.61732733 0.41125196 0.3202408 0.09422973 0.19073434
0.3615207 -0.029054789 0.49619335 0.37875083 1.0 1.0 1.0 1.0
1.0 1.0 1.0 1.0 1.0 1.0 1.0 1.0
1.0 1.0 1.0 1.0 1.0 1.0 1.0 1.0
1.0 1.0 1.0 1.0 1.0 1.0 1.0 1.0
1.0 1.0 1.0 1.0 1.0 1.0 1.0 1.0
1.0 1.0 1.0 1.0 1.0 1.0 1.0 1.0
1.0 1.0 1.0 1.0 1.0 1.0 1.0 1.0
1.0 1.0 1.0 1.0 1.0 1.0 1.0 1.0
1.0 1.0 1.0 1.0 1.0 1.0 1.0 1.0
1.0 1.0 1.0 1.0 1.0 1.0 1.0 1.0
1.0 1.0 1.0 1.0 1.0 1.0 1.0 1.0
1.0 1.0 1.0 1.0 1.0 1.0 1.0 1.0
1.0 1.0 1.0 1.0 1.0 1.0 1.0 1.0
-0.028228791 -0.29321152 -0.1432336 0.011099129 0.23930936 0.0423678 -0.10959363 0.27814037
-0.14504968 0.094125025 0.19062161 -0.032339077 -0.100506976 -0.002549207 0.23328976 -0.04119762
-0.09147637 -0.17007022 -0.0056680003 -0.16643873 0.3971493 -0.048168458 -0.11873862 0.32351512
-0.05129896 0.15128009 -0.081348136 -0.04793717 -0.22215459 -0.10938577 -0.103205204 0.07329508
-0.05478765 -0.07606244 0.3519614 0.2092034 0.22607692 -0.6102924 -0.23753974 -0.16951355
0.26398242 0.06722676 -0.47695595 0.042317137 0.15534528 -0.01586771 -0.14257947 -0.2055134
0.092612 -0.14170685 -0.10544583 0.08798214 0.058975715 -0.022172567 -0.08773123 0.054014597

arith.constant6 f4 [400]
00000000: f94a d23d b0c5 da3e b545 383d 4bb4 ae3e
00000010: 218b 8f3e 7a6f fd3e 410a f73e be5d 083f
00000020: f75f d83e c483 103f 9e09 163f 9ae8 cd3e
00000030: a7e4 0b3f 2b25 f03e b89f f23e 45d2 913e
00000040: 9ac3 df3e 7e6a 003f 271f 393f 71d0 a13e
00000050: 8cec a63e c899 c53e 23ae 363f 5da2 383f
00000060: 0e81 e0bc fbab 973e 9b31 0e3d c344 043f
00000070: 8eaf 163f 2380 493f 463b e33e 02fa 173f
00000080: 97fa 343e 852d 613e 6263 373f 8dde 963e
00000090: 173f 7f3f d1b5 d73d c588 883f 969f 873d
000000a0: af46 f03e 63c9 e73d 2edf dd3e bd6c 913e
000000b0: b273 2e3f 90bf 9f3e c0fd 30be 61aa 033f
000000c0: 2ec5 b03e 1dad b83e 9a61 fb3e b949 763f
000000d0: 48b9 0e3e 4b1c 283f 5883 c5bd 30bb 653e
000000e0: e543 d53e 77ad e93e ad9b d73e bf6b f13e
000000f0: 956c 92bd b9a5 023f 0784 2b3f c242 843e
00000100: eca0 9d3e 413b fb3e 13fd 063f ebed d93d
00000110: 8ac2 b43e b75c 223f 3d41 b93e d29d e63c
00000120: 0192 ed3e 4f4f e03d 72ec a53e d708 d83e
00000130: 9b88 113e cbac f33e 7b00 0d3f b88a 8b3e
00000140: 681d ad3e 79bd 0c3f dc3a f83e 93ff d73e
00000150: 38f5 d13e 7cf0 453f 66ab 0b3f 8bf6 583e
00000160: 079e 843e 8145 753e b2b7 013f 9d36 103f
00000170: 54ba 8f3d 037c ea3e 0399 193d e2ca 103f
00000180: bd98 0e3d 2a64 d43e 0458 c33e fab6 9bbd
00000190: 0000 803f 0000 803f 0000 803f 0000 803f
000001a0: 0000 803f 0000 803f 0000 803f 0000 803f
000001b0: 0000 803f 0000 803f 0000 803f 0000 803f
000001c0: 0000 803f 0000 803f 0000 803f 0000 803f
000001d0: 0000 803f 0000 803f 0000 803f 0000 803f
000001e0: 0000 803f 0000 803f 0000 803f 0000 803f
000001f0: 0000 803f 0000 803f 0000 803f 0000 803f
00000200: 0000 803f 0000 803f 0000 803f 0000 803f
00000210: 0000 803f 0000 803f 0000 803f 0000 803f
00000220: 0000 803f 0000 803f 0000 803f 0000 803f
00000230: 0000 803f 0000 803f 0000 803f 0000 803f
00000240: 0000 803f 0000 803f 0000 803f 0000 803f
00000250: 0000 803f 0000 803f 0000 803f 0000 803f
00000260: 0000 803f 0000 803f 0000 803f 0000 803f
00000270: 0000 803f 0000 803f 0000 803f 0000 803f
00000280: 0000 803f 0000 803f 0000 803f 0000 803f
00000290: 0000 803f 0000 803f 0000 803f 0000 803f
000002a0: 0000 803f 0000 803f 0000 803f 0000 803f
000002b0: 0000 803f 0000 803f 0000 803f 0000 803f
000002c0: 0000 803f 0000 803f 0000 803f 0000 803f
000002d0: 0000 803f 0000 803f 0000 803f 0000 803f
000002e0: 0000 803f 0000 803f 0000 803f 0000 803f
000002f0: 0000 803f 0000 803f 0000 803f 0000 803f
00000300: 0000 803f 0000 803f 0000 803f 0000 803f
00000310: 0000 803f 0000 803f 0000 803f 0000 803f
00000320: d58c d4bd d531 b0be 5168 433e ad58 6c3d
00000330: c615 8abc b12d c53e a07e 56be 44f9 673e
00000340: 6c09 82bd 665b 933d b5c4 403e 6fda 11bf
00000350: 6d7e 3d3e 81a0 dcbd d0be af3e c6de 1d3e
00000360: 7913 1d3d 6240 15bc ede8 2fbe 622a c93d
00000370: ac1b 803d 2363 913e 8dfb 07be 7ca4 a93e
00000380: a2e4 8f3e a6b9 c83d 44f5 0f3d a69d 15be
00000390: 24e7 00be 9f19 193e 2f56 5e3d d173 20be
000003a0: 565d 093e 9ccd 5f3d a23d 003b 5dd4 04be
000003b0: 81b7 4cbc b2ae 7a3e af0f 22bf fb29 143d
000003c0: 9ebf 2b3e 1ecf 9f3e 07b8 703e a1da c7bd
000003d0: a9b5 333e e0f0 31be e38b aebe ff61 4f3d
000003e0: 90ca c13d b83c 2fbd 65cd 7ebe 0e08 d53e
000003f0: fc88 0d3f 35c8 0d3e 486f dfbe 5a50 66bd
0.10268206 0.4272895 0.044988353 0.34121928 0.28035834 0.49499112 0.4825001 0.5326804
0.42260715 0.5645106 0.58608425 0.40216523 0.5464577 0.46903357 0.4738748 0.28480735
0.4370392 0.50162494 0.7231316 0.3160434 0.32602346 0.38593888 0.7135946 0.72122747
-0.027405288 0.29623398 0.034715276 0.5166742 0.58861625 0.78711146 0.4438116 0.59365857
0.17673717 0.2199002 0.7163602 0.29466668 0.9970564 0.105327256 1.0666739 0.066222355
0.46928927 0.11317708 0.43334335 0.28403273 0.6814529 0.31200838 -0.17284298 0.5143185
0.34525436 0.36069575 0.49097902 0.9620624 0.13937867 0.6566817 -0.096441925 0.22434688
0.41653362 0.45640156 0.4211096 0.47152516 -0.07149617 0.5103412 0.6699833 0.25832182
0.30786836 0.49068645 0.5272991 0.106410824 0.35304672 0.6342272 0.36182585 0.028151426
0.46400455 0.10952627 0.32406956 0.42194244 0.14212267 0.47592768 0.5507886 0.27254272
0.33811498 0.5497661 0.48482406 0.42187175 0.410074 0.77320075 0.5455841 0.21187799
0.25901815 0.23952295 0.5067092 0.56333333 0.07017961 0.45797738 0.03749944 0.56559575
0.03481363 0.4148267 0.38153088 -0.076032594 1.0 1.0 1.0 1.0
1.0 1.0 1.0 1.0 1.0 1.0 1.0 1.0
1.0 1.0 1.0 1.0 1.0 1.0 1.0 1.0
1.0 1.0 1.0 1.0 1.0 1.0 1.0 1.0
1.0 1.0 1.0 1.0 1.0 1.0 1.0 1.0
1.0 1.0 1.0 1.0 1.0 1.0 1.0 1.0
1.0 1.0 1.0 1.0 1.0 1.0 1.0 1.0
1.0 1.0 1.0 1.0 1.0 1.0 1.0 1.0
1.0 1.0 1.0 1.0 1.0 1.0 1.0 1.0
1.0 1.0 1.0 1.0 1.0 1.0 1.0 1.0
1.0 1.0 1.0 1.0 1.0 1.0 1.0 1.0
1.0 1.0 1.0 1.0 1.0 1.0 1.0 1.0
1.0 1.0 1.0 1.0 1.0 1.0 1.0 1.0
-0.10378424 -0.3441302 0.19082762 0.057701755 -0.016856086 0.38511422 -0.20946741 0.22653681
-0.06349453 0.07195167 0.18825038 -0.5697393 0.18505259 -0.10772801 0.34325266 0.15417013
0.03834865 -0.009109588 -0.17178698 0.09822537 0.06255278 0.28395948 -0.13279553 0.33133304
0.2810412 0.09801035 0.035146013 -0.1461092 -0.12588173 0.1495118 0.05428141 -0.1566918
0.13414511 0.054639444 0.0019567986 -0.12971635 -0.012494923 0.24480703 -0.6330518 0.03617285
0.16772315 0.31212705 0.23507701 -0.09758497 0.17549767 -0.17377043 -0.340911 0.050630566
0.09462464 -0.042782515 -0.2488304 0.41607708 0.55287147 0.13845904 -0.43639588 -0.056228973

arith.constant7 f4 [400]
00000000: 8f63 01bd 82ff cc3d 2be8 6bbb fb23 a83e
00000010: 9e28 943e b292 f73d 17de 813e fbef 373e
00000020: ec59 1b3d 9ffb c73e af62 ecbd 4f35 b33d
00000030: 83e2 473f 9fe7 92bc 0337 77bd 663d 803e
00000040: bf57 85bd 9ad0 b6bd 7383 313f c933 4fbe
00000050: e047 1f3f 23ca 1a3d b14c 3e3e 5353 693e
00000060: d52c 913f 9f5e 133e 1db5 c93d ef27 b63c
00000070: b801 f23e 7af9 59bd 0d4d 6b3d 8d04 1f3e
00000080: a3df 1d3f 7692 5d3e c7ab 6ebd fb1c aebe
00000090: e32d 1cbd a22c 65be 07a2 bd3d bc45 b73d
000000a0: 14ec 9e3d 3192 9f3e 25a9 733e a711 253e
000000b0: 040e dc3e 84d2 c43e 297a fdbd 0776 983f
000000c0: a73d b03e f29a 4d3d 07a2 8a3d cb8d ea3e
000000d0: 99f5 77bd 8744 883d bfcd 593f 5f1e b43d
000000e0: c4c1 723e 7431 b73e f2b7 cc3e d779 d33e
000000f0: 7e82 bc3e 364d 2dbe 00c4 d03a 37ad c2be
00000100: 6ce3 ff3d dccd 5a3d b7b6 e63d dd51 04be
00000110: 924c a73e 054b 053e ab65 243e 8b93 073f
00000120: 8929 bfbb f8d1 003e 932d 843f c782 00bf
00000130: eed1 433d 7a30 013f c922 5d3f 9d84 393e
00000140: 4d95 d03d 534b b73e b27a cb3c 0b66 9cbd
00000150: f4ad 173d e9cb 5abc 4843 013f 143c 87bd
00000160: 1472 17bd 2ea6 a23f 6cc9 3ebe 3173 083f
00000170: 61e9 143f 30ab 1c3d 7f7f c53d 7006 15be
00000180: d48d 243e 85e5 273e a37b 313e 2b47 463f
00000190: 0000 803f 0000 803f 0000 803f 0000 803f
000001a0: 0000 803f 0000 803f 0000 803f 0000 803f
000001b0: 0000 803f 0000 803f 0000 803f 0000 803f
000001c0: 0000 803f 0000 803f 0000 803f 0000 803f
000001d0: 0000 803f 0000 803f 0000 803f 0000 803f
000001e0: 0000 803f 0000 803f 0000 803f 0000 803f
000001f0: 0000 803f 0000 803f 0000 803f 0000 803f
00000200: 0000 803f 0000 803f 0000 803f 0000 803f
00000210: 0000 803f 0000 803f 0000 803f 0000 803f
00000220: 0000 803f 0000 803f 0000 803f 0000 803f
00000230: 0000 803f 0000 803f 0000 803f 0000 803f
00000240: 0000 803f 0000 803f 0000 803f 0000 803f
00000250: 0000 803f 0000 803f 0000 803f 0000 803f
00000260: 0000 803f 0000 803f 0000 803f 0000 803f
00000270: 0000 803f 0000 803f 0000 803f 0000 803f
00000280: 0000 803f 0000 803f 0000 803f 0000 803f
00000290: 0000 803f 0000 803f 0000 803f 0000 803f
000002a0: 0000 803f 0000 803f 0000 803f 0000 803f
000002b0: 0000 803f 0000 803f 0000 803f 0000 803f
000002c0: 0000 803f 0000 803f 0000 803f 0000 803f
000002d0: 0000 803f 0000 803f 0000 803f 0000 803f
000002e0: 0000 803f 0000 803f 0000 803f 0000 803f
000002f0: 0000 803f 0000 803f 0000 803f 0000 803f
00000300: 0000 803f 0000 803f 0000 803f 0000 803f
00000310: 0000 803f 0000 803f 0000 803f 0000 803f
00000320: 3d96 653e c5ce 69be b65f 2f3e b0e4 0e3e
00000330: e42a 69be 81df cf3e 4151 dfbe f01a f0be
00000340: d6be 3f3e 6d33 f4bd 7b89 fdbd f3df d13e
00000350: e533 e7be 7f67 853e f0ff 93be f80e ba3e
00000360: 9f8b cfbd 592c 883e 6032 5ebd 1ca8 a23e
00000370: 5862 6fbe 3544 6b3e efb2 d13e e2f3 d93e
00000380: e188 32bf 35bc 96be 797c dd3d 784f c63e
00000390: 49b3 b43e 600c 403e 7981 a2be 2586 31bc
000003a0: ee73 d13e 112e a63e aca4 e03e 1f96 c3bc
000003b0: 09d7 833e 56cb 88be 06ab d1bd bdca c93d
000003c0: f1d4 e83d 3189 ae3e 74e2 893e fbb4 cf3e
000003d0: 1ff6 8ebc de16 9ebe 0157 77be 6ac3 8b3e
000003e0: 9b60 2a3d e541 fcbe da56 173d aa77 9c3e
000003f0: 33f9 afbd 2f0f 7dbe bec6 d63e b4a8 8e3e
-0.031589087 0.10009672 -0.0035996537 0.3283995 0.28937238 0.12088527 0.25364754 0.17962639
0.037927553 0.3905916 -0.1154226 0.08750402 0.78080004 -0.017932711 -0.060355198 0.25046843
-0.06510877 -0.08926506 0.693412 -0.20234598 0.6221905 0.03779043 0.18583943 0.22785692
1.1341807 0.14391564 0.09848998 0.022235839 0.47266936 -0.053216435 0.05744653 0.1552908
0.6166937 0.21637902 -0.05826929 -0.34006485 -0.0381297 -0.22380307 0.0925942 0.08948848
0.07759872 0.31166223 0.23794992 0.16120015 0.42979443 0.3844186 -0.12376816 1.1911019
0.34422037 0.050196595 0.067691855 0.45811304 -0.060536955 0.066536956 0.8507957 0.08794855
0.23706728 0.35779917 0.3998409 0.41303894 0.36818308 -0.16923985 0.0015927553 -0.38022777
0.12494549 0.05341898 0.11265319 -0.12921853 0.32675606 0.13016899 0.16054408 0.5295951
-0.005833809 0.12580097 1.0326408 -0.5019955 0.047807626 0.50464594 0.863812 0.18116994
0.10184727 0.35799655 0.02483878 -0.07636651 0.03703113 -0.01335428 0.5049329 -0.06603256
-0.036974028 1.2706964 -0.18631524 0.5330077 0.5816861 0.038249195 0.096434586 -0.14553237
0.16069728 0.16396149 0.1733232 0.77452344 1.0 1.0 1.0 1.0
1.0 1.0 1.0 1.0 1.0 1.0 1.0 1.0
1.0 1.0 1.0 1.0 1.0 1.0 1.0 1.0
1.0 1.0 1.0 1.0 1.0 1.0 1.0 1.0
1.0 1.0 1.0 1.0 1.0 1.0 1.0 1.0
1.0 1.0 1.0 1.0 1.0 1.0 1.0 1.0
1.0 1.0 1.0 1.0 1.0 1.0 1.0 1.0
1.0 1.0 1.0 1.0 1.0 1.0 1.0 1.0
1.0 1.0 1.0 1.0 1.0 1.0 1.0 1.0
1.0 1.0 1.0 1.0 1.0 1.0 1.0 1.0
1.0 1.0 1.0 1.0 1.0 1.0 1.0 1.0
1.0 1.0 1.0 1.0 1.0 1.0 1.0 1.0
1.0 1.0 1.0 1.0 1.0 1.0 1.0 1.0
0.22420593 -0.22832783 0.17126355 0.13954425 -0.22770268 0.40600207 -0.4361668 -0.46895552
0.18725142 -0.11923871 -0.12379738 0.40991172 -0.4515678 0.26055524 -0.28906202 0.36339545
-0.101340525 0.26596335 -0.05424726 0.31768882 -0.23377359 0.22975238 0.40956828 0.4256888
-0.6974011 -0.29440466 0.10814757 0.38732505 0.35293034 0.1875472 -0.31739405 -0.010835205
0.4090876 0.3245702 0.43875635 -0.023875294 0.25749996 -0.26717633 -0.10237698 0.098531224
0.1136874 0.34089044 0.26930583 0.40567765 -0.017451344 -0.3087682 -0.24154283 0.27297527
0.041596036 -0.49269024 0.036948062 0.30560046 -0.08592453 -0.24712823 0.41948503 0.27863085

arith.constant8 f4 [400]
00000000: 491c c53e 50c4 973e ceb1 c1bd 77c2 c63e
00000010: 0da4 abbd 54db cf3d 718e de3e c5b4 b73e
00000020: 734a b23e 95b4 473c a9ca 1ebd 4f6d 483f
00000030: 24fe db3e cc9e cf3f 0e77 ea3e c4e6 453d
00000040: aaea c23e afeb 03bd 0800 37be ccf6 b93d
00000050: 599e 6f3e 2bc5 1c3f 9534 7d3f 41f5 09bc
00000060: ae6b 893d 7760 063e ce5d da3b 356e f73e
00000070: b2cc 3f3f e8b3 1fbb bf0b e6bc 96fb 713f
00000080: 935c 283e 74ab 28bd 0e9d b83d 6193 1d3e
00000090: d0e2 683e 7953 21bd e10a 2c3e 43f6 3bbe
000000a0: efd5 8c3e a609 a03e c639 d33d 5ac4 90be
000000b0: 92eb e93d 00e5 14bd c506 753e dd74 973f
000000c0: 78fe 303c d84d 8a3e 8255 453c 7bff 263e
000000d0: 40e3 c3be 5f4c 983d f389 57bd f5f4 e63e
000000e0: 78ee 9bbe b84f d5be 20a9 aebe 4c9d 9c39
000000f0: 3dcc 5f3e 4132 cdbd 6c99 873e 3a8d 25be
00000100: 1ed5 cbbe 7d06 173d 846f 183f a7b8 e53e
00000110: 13d2 163f 07fc c83e c860 d73d 854e 393d
00000120: bdc5 d33c d60a 3d3f b808 a3be cb71 9d3e
00000130: 2211 cfbd fdd7 b23e 6028 053f a7a5 c83e
00000140: b3b9 d7bd 5ec9 583f 5aad 163f 8226 8abc
00000150: 36dc cc3e 7174 2a3f 6597 c43e 3f67 363e
00000160: c6a8 7dbd 1fce 1dbe 5099 ca3d b2a8 3fbe
00000170: 7882 af3f 1fc9 8cbd 2fb8 923e f915 383d
00000180: 1056 613d 3edd 85bd 4d28 6c3b 1122 73bd
00000190: 0000 803f 0000 803f 0000 803f 0000 803f
000001a0: 0000 803f 0000 803f 0000 803f 0000 803f
000001b0: 0000 803f 0000 803f 0000 803f 0000 803f
000001c0: 0000 803f 0000 803f 0000 803f 0000 803f
000001d0: 0000 803f 0000 803f 0000 803f 0000 803f
000001e0: 0000 803f 0000 803f 0000 803f 0000 803f
000001f0: 0000 803f 0000 803f 0000 803f 0000 803f
00000200: 0000 803f 0000 803f 0000 803f 0000 803f
00000210: 0000 803f 0000 803f 0000 803f 0000 803f
00000220: 0000 803f 0000 803f 0000 803f 0000 803f
00000230: 0000 803f 0000 803f 0000 803f 0000 803f
00000240: 0000 803f 0000 803f 0000 803f 0000 803f
00000250: 0000 803f 0000 803f 0000 803f 0000 803f
00000260: 0000 803f 0000 803f 0000 803f 0000 803f
00000270: 0000 803f 0000 803f 0000 803f 0000 803f
00000280: 0000 803f 0000 803f 0000 803f 0000 803f
00000290: 0000 803f 0000 803f 0000 803f 0000 803f
000002a0: 0000 803f 0000 803f 0000 803f 0000 803f
000002b0: 0000 803f 0000 803f 0000 803f 0000 803f
000002c0: 0000 803f 0000 803f 0000 803f 0000 803f
000002d0: 0000 803f 0000 803f 0000 803f 0000 803f
000002e0: 0000 803f 0000 803f 0000 803f 0000 803f
000002f0: 0000 803f 0000 803f 0000 803f 0000 803f
00000300: 0000 803f 0000 803f 0000 803f 0000 803f
00000310: 0000 803f 0000 803f 0000 803f 0000 803f
00000320: 8077 13bd 2698 0b3d b4c9 2abe 1090 be3c
00000330: f5be f7be 30e8 333d f6f7 13bd 9204 a3be
00000340: 5362 ebbd 677d a5bb a152 5dbe 2c71 913d
00000350: 89a4 05bc c90a 9fbe 9c14 a8bc d864 e4be
00000360: a5b4 273f 5461 833e 854e a3be 7342 b13d
00000370: a6a9 c3be a816 22be bf4d 38be b716 84be
00000380: e08a ad3e e764 893d 8ee0 833d d679 11be
00000390: c8e6 36bf 37df 5abe 5697 6c3e 8fbc 9d3e
000003a0: 8868 e2bb f027 17bd bc12 36bd 938d ec3e
000003b0: 17e3 313e 6e62 7c3e 7056 01bf 8d14 2cbe
000003c0: eced f73c 3824 49bd 37ff 133e 29a1 873e
000003d0: d33e 9d3e 51f8 303d 80f4 4dbe 3a39 b83e
000003e0: 55a7 143f b6f1 d2be 462d e13e aa21 983e
000003f0: 7fd1 c4be 0478 123d 0f25 5abe b8c5 edbe
0.38498142 0.29641962 -0.09457742 0.3882024 -0.083808996 0.101492554 0.4346805 0.35880104
0.34822425 0.01218905 -0.03876749 0.7829179 0.4296733 1.6220336 0.45793957 0.04831578
0.3806966 -0.032207187 -0.17871106 0.09080276 0.23400249 0.61238354 0.9890836 -0.0084202895
0.067099914 0.13122736 0.0066640144 0.4832627 0.74921715 -0.0024368707 -0.028081773 0.94524515
0.16441564 -0.041179135 0.09014331 0.15388252 0.22742772 -0.039386246 0.16801025 -0.1835566
0.27506968 0.3125736 0.10313754 -0.28274804 0.114218846 -0.036351204 0.23928364 1.1832539
0.010802858 0.27012515 0.012044312 0.16308396 -0.38259315 0.07436442 -0.052621793 0.45108762
-0.30455375 -0.41662383 -0.34113407 0.00029871834 0.21855254 -0.10019351 0.2648424 -0.16167155
-0.39811033 0.036871422 0.5954516 0.4486744 0.589143 0.39254782 0.105165064 0.045240898
0.025851125 0.7384466 -0.3184259 0.3075088 -0.1011069 0.3493041 0.5201473 0.39188883
-0.10533466 0.8468226 0.58858263 -0.016864065 0.40011758 0.66583925 0.38396755 0.17812823
-0.061928533 -0.1541066 0.09892523 -0.18716696 1.3711691 -0.06874298 0.28656146 0.04494283
0.055013716 -0.06536339 0.0036034763 -0.05935866 1.0 1.0 1.0 1.0
1.0 1.0 1.0 1.0 1.0 1.0 1.0 1.0
1.0 1.0 1.0 1.0 1.0 1.0 1.0 1.0
1.0 1.0 1.0 1.0 1.0 1.0 1.0 1.0
1.0 1.0 1.0 1.0 1.0 1.0 1.0 1.0
1.0 1.0 1.0 1.0 1.0 1.0 1.0 1.0
1.0 1.0 1.0 1.0 1.0 1.0 1.0 1.0
1.0 1.0 1.0 1.0 1.0 1.0 1.0 1.0
1.0 1.0 1.0 1.0 1.0 1.0 1.0 1.0
1.0 1.0 1.0 1.0 1.0 1.0 1.0 1.0
1.0 1.0 1.0 1.0 1.0 1.0 1.0 1.0
1.0 1.0 1.0 1.0 1.0 1.0 1.0 1.0
1.0 1.0 1.0 1.0 1.0 1.0 1.0 1.0
-0.036002636 0.034080647 -0.16678506 0.023262054 -0.48387876 0.043922603 -0.036125146 -0.31839424
-0.11493363 -0.0050503495 -0.21613552 0.07101664 -0.008156904 -0.31062916 -0.02051764 -0.44608188
0.65510017 0.25660193 -0.31895843 0.08655252 -0.3821537 -0.15828955 -0.17998408 -0.2579858
0.33895016 0.06708699 0.06439315 -0.14206633 -0.71445894 -0.21374212 0.23104605 0.3080792
-0.0069094338 -0.03690332 -0.04445146 0.46201763 0.17371784 0.24646923 -0.5052252 -0.16804715
0.030264817 -0.049106807 0.14452825 0.26490143 0.30711994 0.043205563 -0.201128 0.3598116
0.5806783 -0.41200036 0.43979853 0.29713184 -0.38441083 0.035758987 -0.21303199 -0.4643991

arith.constant9 f4 [34]
00000000: a420 b8bf 00c6 81bf 3ed8 46bf ca3a 56bf
00000010: 16f8 43bf cd0b 72bf d3af 22bf e952 32c0
00000020: ffbe 86bf c2c6 32bf e67a 7bbf 3adc a3bf
00000030: 16d0 13c0 131f 80bf 70be d4bf 05cf 53bf
00000040: 116a 82bf 0c32 74bf 0efd c2bf 8455 aebf
00000050: 53b4 56bf 546d a8bf f279 29be 7ba6 a6bf
00000060: 2621 07bf 7e84 37bf 4ab1 1bbf 0c06 56bf
00000070: d62c c9be 2fb7 31bf 8b30 3bbe ceec 16bf
00000080: 9aa4 e1be aac8 f3be
-1.4384961 -1.013855 -0.7767371 -0.83683455 -0.76550424 -0.94549257 -0.63549536 -2.7863104
-1.0527037 -0.6983453 -0.98234403 -1.2801583 -2.3095756 -1.0009483 -1.6620617 -0.8273776
-1.0188619 -0.95388865 -1.5233476 -1.3619847 -0.838689 -1.3158364 -0.16550425 -1.3019556
-0.52784956 -0.7168654 -0.60817397 -0.83602977 -0.3929202 -0.6942014 -0.18280236 -0.58955085
-0.44070894 -0.47614032

tfl.pseudo_qconst i1 [34, 200] scale=0.03269606 zero_point=0
00000000: f6f2 10fb fd02 0906 08f0 f1ea 1c1c 10f9
00000010: fa00 f6fe f417 1bf0 09ed fcf4 1908 0cdf
00000020: f516 e90d 10ef 090d 11e7 0e04 fdfa 16e6
00000030: 0aff 02fc 0b0d f41d ebf1 11f1 f300 fb0a
00000040: fde8 161c 2005 f9f7 0ae3 0bf9 f804 12e1
00000050: 0ae8 17f1 fa1c e7f3 f90f 080c 1cfd 03f6
00000060: fbf3 1e15 fef1 ed04 0616 0102 211a f5e8
00000070: 1f0c f7e2 fe0a 160b 1d16 08fb 1ffb 080c
00000080: 0414 151d ee05 05f9 fffb f91c 06fe e2fc
00000090: de0b eee9 e100 fde0 13f3 e106 0fe7 ea0e
000000a0: ef0e 03f1 1603 dc0d 0002 09e7 fdef 1c09
000000b0: fcf5 ea02 fbe5 f8f5 fffd e3ff fd19 0d16
000000c0: fb07 07f8 fe02 e60e eaef 3007 ef05 f402
000000d0: 06e7 01df 1736 10f7 da10 de05 ef18 21f1
000000e0: f5ed f5f2 4df5 fbf1 ef23 f7f7 0ff9 fa51
000000f0: 12f3 11fa faf9 1caf fdec f6f7 0011 ff36
-0.32696062 -0.45774484 0.523137 -0.16348031 -0.09808818 0.06539212 0.29426455 0.19617637
0.2615685 -0.523137 -0.4904409 -0.7193133 0.9154897 0.9154897 0.523137 -0.22887242
-0.19617637 0.0 -0.32696062 -0.06539212 -0.39235273 0.7520094 0.88279366 -0.523137
0.29426455 -0.6212252 -0.13078424 -0.39235273 0.8174015 0.2615685 0.39235273 -1.07897
-0.35965666 0.7193133 -0.7520094 0.4250488 0.523137 -0.55583304 0.29426455 0.4250488
0.55583304 -0.8174015 0.45774484 0.13078424 -0.09808818 -0.19617637 0.7193133 -0.8500976
0.32696062 -0.03269606 0.06539212 -0.13078424 0.35965666 0.4250488 -0.39235273 0.94818574
-0.68661726 -0.4904409 0.55583304 -0.4904409 -0.4250488 0.0 -0.16348031 0.32696062
-0.09808818 -0.78470546 0.7193133 0.9154897 1.046274 0.16348031 -0.22887242 -0.29426455
0.32696062 -0.94818574 0.35965666 -0.22887242 -0.2615685 0.13078424 0.5885291 -1.0135779
0.32696062 -0.78470546 0.7520094 -0.4904409 -0.19617637 0.9154897 -0.8174015 -0.4250488
-0.22887242 0.4904409 0.2615685 0.39235273 0.9154897 -0.09808818 0.09808818 -0.32696062
-0.16348031 -0.4250488 0.9808818 0.68661726 -0.06539212 -0.4904409 -0.6212252 0.13078424
0.19617637 0.7193133 0.03269606 0.06539212 1.07897 0.8500976 -0.35965666 -0.78470546
1.0135779 0.39235273 -0.29426455 -0.9808818 -0.06539212 0.32696062 0.7193133 0.35965666
0.94818574 0.7193133 0.2615685 -0.16348031 1.0135779 -0.16348031 0.2615685 0.39235273
0.13078424 0.65392125 0.68661726 0.94818574 -0.5885291 0.16348031 0.16348031 -0.22887242
-0.03269606 -0.16348031 -0.22887242 0.9154897 0.19617637 -0.06539212 -0.9808818 -0.13078424
-1.1116661 0.35965666 -0.5885291 -0.7520094 -1.0135779 0.0 -0.09808818 -1.046274
0.6212252 -0.4250488 -1.0135779 0.19617637 0.4904409 -0.8174015 -0.7193133 0.45774484
-0.55583304 0.45774484 0.09808818 -0.4904409 0.7193133 0.09808818 -1.1770582 0.4250488
0.0 0.06539212 0.29426455 -0.8174015 -0.09808818 -0.55583304 0.9154897 0.29426455
-0.13078424 -0.35965666 -0.7193133 0.06539212 -0.16348031 -0.88279366 -0.2615685 -0.35965666
-0.03269606 -0.09808818 -0.94818574 -0.03269606 -0.09808818 0.8174015 0.4250488 0.7193133
-0.16348031 0.22887242 0.22887242 -0.2615685 -0.06539212 0.06539212 -0.8500976 0.45774484
-0.7193133 -0.55583304 1.5694109 0.22887242 -0.55583304 0.16348031 -0.39235273 0.06539212
0.19617637 -0.8174015 0.03269606 -1.07897 0.7520094 1.7655873 0.523137 -0.29426455
-1.2424504 0.523137 -1.1116661 0.16348031 -0.55583304 0.78470546 1.07897 -0.4904409
-0.35965666 -0.6212252 -0.35965666 -0.45774484 2.5175967 -0.35965666 -0.16348031 -0.4904409
-0.55583304 1.1443621 -0.29426455 -0.29426455 0.4904409 -0.22887242 -0.19617637 2.648381
0.5885291 -0.4250488 0.55583304 -0.19617637 -0.19617637 -0.22887242 0.9154897 -2.648381
-0.09808818 -0.65392125 -0.32696062 -0.29426455 0.0 0.55583304 -0.03269606 1.7655873

arith.constant14 f4 [400]
00000000: 4624 bb3e 73d3 9a3d 7ba4 0dbe fa34 083f
00000010: 85f2 733e e229 683e 9eab 553e 480c 2e3e
00000020: 8d36 923e d9db c73e abc2 313f 764c b63e
00000030: 9039 8b3e 7665 f13e ba2d d83e 5e8a 2c3e
00000040: f523 ef3e 56ee a03e f0f2 873e 67f2 923e
00000050: 5623 a23e 6a51 ae3d 7407 493f c447 cc3e
00000060: 2123 023e af21 b83e dbae eb3e 3b7b 593e
00000070: 5cac 133f 9113 9f3e 48bd 0d3f 377f c73c
00000080: 2eae cf3e 6302 bb3e 50b0 803f f452 143f
00000090: 7db6 0d3f 5507 f53e 5f27 8f3e 4fc9 5f3f
000000a0: 5f96 063f 44b7 963e 5849 9b3e 5a08 0b3e
000000b0: 8c29 babe db51 34be 3067 603e 467d 01bd
000000c0: b18f b13e 0ff0 ed3e 8ab5 893e 8f35 1d3d
000000d0: 49e0 9f3e 9203 663d 07fb df3d 3d8c 4f3f
000000e0: d504 1c3f cc21 9d3e 2520 e83d bcb0 813e
000000f0: 6c6f 8d3d b086 ce3e 4472 993e 4a7c 8c3e
00000100: 89b0 7abc d0bb 883e e777 ac3d 3f72 083f
00000110: 6629 dd3e 6af6 a53c a6a3 703e 8bcc 933e
00000120: 8b7d dd3e e11b 5f3c 4b09 003f 6753 023f
00000130: 166f 863e fcf9 e03e c7ec 313f d9c6 133e
00000140: b49b b5bb a9fd cb3e e9af 303e 85ab 163f
00000150: 39f3 1e3e b7ae a739 130a 4c3f 6fb3 3f3f
00000160: dc09 363d 830d f93e 1aa2 ee3e 2a09 1e3f
00000170: 9e8f d23e 9af6 a33e 84fb c03d dd4f 433e
00000180: 3e19 b93e 4f04 eebc 0e0d fe3e a1eb c13e
00000190: 0000 803f 0000 803f 0000 803f 0000 803f
000001a0: 0000 803f 0000 803f 0000 803f 0000 803f
000001b0: 0000 803f 0000 803f 0000 803f 0000 803f
000001c0: 0000 803f 0000 803f 0000 803f 0000 803f
000001d0: 0000 803f 0000 803f 0000 803f 0000 803f
000001e0: 0000 803f 0000 803f 0000 803f 0000 803f
000001f0: 0000 803f 0000 803f 0000 803f 0000 803f
00000200: 0000 803f 0000 803f 0000 803f 0000 803f
00000210: 0000 803f 0000 803f 0000 803f 0000 803f
00000220: 0000 803f 0000 803f 0000 803f 0000 803f
00000230: 0000 803f 0000 803f 0000 803f 0000 803f
00000240: 0000 803f 0000 803f 0000 803f 0000 803f
00000250: 0000 803f 0000 803f 0000 803f 0000 803f
00000260: 0000 803f 0000 803f 0000 803f 0000 803f
00000270: 0000 803f 0000 803f 0000 803f 0000 803f
00000280: 0000 803f 0000 803f 0000 803f 0000 803f
00000290: 0000 803f 0000 803f 0000 803f 0000 803f
000002a0: 0000 803f 0000 803f 0000 803f 0000 803f
000002b0: 0000 803f 0000 803f 0000 803f 0000 803f
000002c0: 0000 803f 0000 803f 0000 803f 0000 803f
000002d0: 0000 803f 0000 803f 0000 803f 0000 803f
000002e0: 0000 803f 0000 803f 0000 803f 0000 803f
000002f0: 0000 803f 0000 803f 0000 803f 0000 803f
00000300: 0000 803f 0000 803f 0000 803f 0000 803f
00000310: 0000 803f 0000 803f 0000 803f 0000 803f
00000320: 1140 e7bc d21f 96be d4ab 12be 1fd9 353c
00000330: 830d 753e dc89 2d3d a072 e0bd 6a68 8e3e
00000340: e787 14be 9fc4 c03d 5032 433e fb75 04bd
00000350: 9ad6 cdbd 9910 27bb 83e3 6e3e d6be 28bd
00000360: f757 bbbd e326 2ebe a2ba b9bb ea6e 2abe
00000370: 2757 cb3e 4a4c 45bd 3c2d f3bd c6a3 a53e
00000380: dc1e 52bd 2be9 1a3e da99 a6bd c459 44bd
00000390: 7e7c 63be a605 e0bd 405d d3bd bb1b 963d
000003a0: 0469 60bd a0c6 9bbd 4934 b43e 6b39 563e
000003b0: b580 673e 1f3c 1cbf 9e3d 73be f694 2dbe
000003c0: b428 873e 2fae 893d 9233 f4be bc54 2d3d
000003d0: d512 1f3e 00fd 81bc 5a00 12be 1b72 52be
000003e0: 5cab bd3d 9a1b 11be fcf3 d7bd fb2f b43d
000003f0: 8590 713d 3ea3 b5bc 6eac b3bd 693e 5d3d
0.36551112 0.07559862 -0.13832276 0.53205836 0.23822983 0.22672227 0.20866248 0.16996872
0.28557244 0.39034918 0.69437665 0.3560521 0.27192354 0.4714772 0.42222387 0.16849658
0.4670712 0.31431836 0.26552534 0.28700563 0.31667584 0.08511622 0.78527 0.39898503
0.12708713 0.359632 0.46031842 0.21238415 0.57684875 0.31069615 0.55366945 0.024352653
0.40562576 0.36525258 1.0053806 0.57939076 0.5535658 0.47857156 0.27959725 0.8741655
0.525732 0.29436696 0.30329394 0.13577405 -0.36359823 -0.1760935 0.21914363 -0.03161361
0.3467994 0.46472213 0.26896316 0.038381156 0.31225803 0.05615575 0.109365515 0.8107336
0.60944873 0.30689847 0.11334256 0.2533015 0.06906018 0.40337133 0.2996999 0.27438575
-0.015300878 0.2670579 0.08421307 0.53299326 0.43195647 0.020259101 0.23499927 0.2886699
0.43259844 0.013617487 0.5001418 0.5090851 0.26256627 0.43940723 0.6950192 0.14431323
-0.005542243 0.39841965 0.17254604 0.5885547 0.1552247 0.00031982895 0.7970287 0.7488317
0.044442996 0.4864312 0.4660805 0.61732733 0.41125196 0.3202408 0.09422973 0.19073434
0.3615207 -0.029054789 0.49619335 0.37875083 1.0 1.0 1.0 1.0
1.0 1.0 1.0 1.0 1.0 1.0 1.0 1.0
1.0 1.0 1.0 1.0 1.0 1.0 1.0 1.0
1.0 1.0 1.0 1.0 1.0 1.0 1.0 1.0
1.0 1.0 1.0 1.0 1.0 1.0 1.0 1.0
1.0 1.0 1.0 1.0 1.0 1.0 1.0 1.0
1.0 1.0 1.0 1.0 1.0 1.0 1.0 1.0
1.0 1.0 1.0 1.0 1.0 1.0 1.0 1.0
1.0 1.0 1.0 1.0 1.0 1.0 1.0 1.0
1.0 1.0 1.0 1.0 1.0 1.0 1.0 1.0
1.0 1.0 1.0 1.0 1.0 1.0 1.0 1.0
1.0 1.0 1.0 1.0 1.0 1.0 1.0 1.0
1.0 1.0 1.0 1.0 1.0 1.0 1.0 1.0
-0.028228791 -0.29321152 -0.1432336 0.011099129 0.23930936 0.0423678 -0.10959363 0.27814037
-0.14504968 0.094125025 0.19062161 -0.032339077 -0.100506976 -0.002549207 0.23328976 -0.04119762
-0.09147637 -0.17007022 -0.0056680003 -0.16643873 0.3971493 -0.048168458 -0.11873862 0.32351512
-0.05129896 0.15128009 -0.081348136 -0.04793717 -0.22215459 -0.10938577 -0.103205204 0.07329508
-0.05478765 -0.07606244 0.3519614 0.2092034 0.22607692 -0.6102924 -0.23753974 -0.16951355
0.26398242 0.06722676 -0.47695595 0.042317137 0.15534528 -0.01586771 -0.14257947 -0.2055134
0.092612 -0.14170685 -0.10544583 0.08798214 0.058975715 -0.022172567 -0.08773123 0.054014597

tfl.pseudo_qconst1 i1 [400, 24] scale=0.020788865 zero_point=0
00000000: fd01 03fe e906 100c f8f0 f003 edf7 f7ef
00000010: 0505 f9f9 eb06 0b11 02fe 0c0d ff0a fb11
00000020: f9fc 0903 ff00 0700 0301 0201 fef9 02fc
00000030: 05fe 1c19 0103 0401 fbff 00ff fbfa 06fd
00000040: f901 f400 f901 fb07 06f2 01ff e610 fafd
00000050: dced 0306 f5fb f901 ff00 fefd eb0a 03f4
00000060: fee7 0802 ef01 fc0d 0af6 fa04 f9fa 0401
00000070: fd00 0002 f906 ff11 ff0c 0603 0501 0810
00000080: e1ec f0e9 eee7 e8f8 f7fd edf2 f9f3 f9f5
00000090: 06ee 06fc fa00 fd03 eeee fe03 03fb 1008
000000a0: 0607 0906 fb01 0203 19f5 0f0a f20f 0def
000000b0: fe09 050d f000 f301 f601 fffa f20d faf8
000000c0: fff9 0108 f002 0a00 ee00 fc04 00fe fcff
000000d0: f9fc 02fa f801 01fe 1400 fdf9 f1f0 07fd
000000e0: fadf e2e9 deea d6df f9fe ddd6 e003 00e6
000000f0: f5ec f3fa def4 010c dad7 e7e6 e5dd eae2
-0.062366597 0.020788865 0.062366597 -0.04157773 -0.4781439 0.124733195 0.33262184 0.24946639
-0.16631092 -0.33262184 -0.33262184 0.062366597 -0.39498845 -0.18709978 -0.18709978 -0.35341072
0.103944324 0.103944324 -0.14552206 -0.14552206 -0.43656617 0.124733195 0.22867751 0.35341072
0.04157773 -0.04157773 0.24946639 0.27025524 -0.020788865 0.20788865 -0.103944324 0.35341072
-0.14552206 -0.08315546 0.18709978 0.062366597 -0.020788865 0.0 0.14552206 0.0
0.062366597 0.020788865 0.04157773 0.020788865 -0.04157773 -0.14552206 0.04157773 -0.08315546
0.103944324 -0.04157773 0.58208823 0.5197216 0.020788865 0.062366597 0.08315546 0.020788865
-0.103944324 -0.020788865 0.0 -0.020788865 -0.103944324 -0.124733195 0.124733195 -0.062366597
-0.14552206 0.020788865 -0.24946639 0.0 -0.14552206 0.020788865 -0.103944324 0.14552206
0.124733195 -0.29104412 0.020788865 -0.020788865 -0.5405105 0.33262184 -0.124733195 -0.062366597
-0.74839914 -0.39498845 0.062366597 0.124733195 -0.22867751 -0.103944324 -0.14552206 0.020788865
-0.020788865 0.0 -0.04157773 -0.062366597 -0.43656617 0.20788865 0.062366597 -0.24946639
-0.04157773 -0.5197216 0.16631092 0.04157773 -0.35341072 0.020788865 -0.08315546 0.27025524
0.20788865 -0.20788865 -0.124733195 0.08315546 -0.14552206 -0.124733195 0.08315546 0.020788865
-0.062366597 0.0 0.0 0.04157773 -0.14552206 0.124733195 -0.020788865 0.35341072
-0.020788865 0.24946639 0.124733195 0.062366597 0.103944324 0.020788865 0.16631092 0.33262184
-0.64445484 -0.4157773 -0.33262184 -0.4781439 -0.37419957 -0.5197216 -0.49893278 -0.16631092
-0.18709978 -0.062366597 -0.39498845 -0.29104412 -0.14552206 -0.27025524 -0.14552206 -0.22867751
0.124733195 -0.37419957 0.124733195 -0.08315546 -0.124733195 0.0 -0.062366597 0.062366597
-0.37419957 -0.37419957 -0.04157773 0.062366597 0.062366597 -0.103944324 0.33262184 0.16631092
0.124733195 0.14552206 0.18709978 0.124733195 -0.103944324 0.020788865 0.04157773 0.062366597
0.5197216 -0.22867751 0.31183296 0.20788865 -0.29104412 0.31183296 0.27025524 -0.35341072
-0.04157773 0.18709978 0.103944324 0.27025524 -0.33262184 0.0 -0.27025524 0.020788865
-0.20788865 0.020788865 -0.020788865 -0.124733195 -0.29104412 0.27025524 -0.124733195 -0.16631092
-0.020788865 -0.14552206 0.020788865 0.16631092 -0.33262184 0.04157773 0.20788865 0.0
-0.37419957 0.0 -0.08315546 0.08315546 0.0 -0.04157773 -0.08315546 -0.020788865
-0.14552206 -0.08315546 0.04157773 -0.124733195 -0.16631092 0.020788865 0.020788865 -0.04157773
0.4157773 0.0 -0.062366597 -0.14552206 -0.31183296 -0.33262184 0.14552206 -0.062366597
-0.124733195 -0.68603253 -0.6236659 -0.4781439 -0.70682144 -0.45735502 -0.87313235 -0.68603253
-0.14552206 -0.04157773 -0.7276103 -0.87313235 -0.6652437 0.062366597 0.0 -0.5405105
-0.22867751 -0.4157773 -0.27025524 -0.124733195 -0.70682144 -0.24946639 0.020788865 0.24946639
-0.7899769 -0.8523435 -0.5197216 -0.5405105 -0.5612994 -0.7276103 -0.45735502 -0.6236659

tfl.pseudo_qconst2 i1 [400, 100] scale=0.0017455345 zero_point=0
00000000: c3ff fefe e509 1f0a f50a 0ff5 f100 312b
00000010: f5aa 352f 14f8 faf5 d11e 3fcd 2703 ece9
00000020: 1106 ebe4 1e2d f3f3 da09 fbe5 0dd4 2001
00000030: bce3 1bfc f4f8 02d1 21fc 01e8 f305 3a01
00000040: 0803 fe14 f103 15c8 021d 1e09 e406 1ad2
00000050: dbe5 e512 e9da cc0a 1423 f2cf 041d 2bf9
00000060: 02e7 0409 1bf7 fdd8 0718 0efa f6d4 e825
00000070: 25f8 1b1f 3ce4 1614 d2ed ec37 eb09 f644
00000080: f4f9 1410 fbf8 1e17 1100 24ee e7f5 e1e3
00000090: 0d37 ecfd 02e8 f617 32e9 f40a 0823 e901
000000a0: f0ee daec f512 e9e0 f3e5 1216 0534 f5d7
000000b0: 27fb e220 03d0 03f4 1e08 f119 1416 efea
000000c0: f9ef fa02 e628 e8e3 080f 4710 c502 1719
000000d0: 1c23 fdad 1405 020b 1ce5 fef6 00d7 0a48
000000e0: 16d1 22ef fe06 03f9 2ae7 410c 122e 04f5
000000f0: 24e4 e6fc d11a 13f6 cfca fd00 ec19 13ed
-0.1064776 -0.0017455345 -0.003491069 -0.003491069 -0.04712943 0.01570981 0.05411157 0.017455345
-0.01920088 0.017455345 0.026183017 -0.01920088 -0.026183017 0.0 0.08553119 0.07505798
-0.01920088 -0.15011597 0.09251333 0.08204012 0.03491069 -0.013964276 -0.010473207 -0.01920088
-0.08204012 0.052366033 0.10996867 -0.08902226 0.06807584 0.0052366033 -0.03491069 -0.040147293
0.029674087 0.010473207 -0.036656223 -0.048874967 0.052366033 0.07854905 -0.022691948 -0.022691948
-0.06633031 0.01570981 -0.0087276725 -0.04712943 0.022691948 -0.07680352 0.055857103 0.0017455345
-0.11869635 -0.0506205 0.04712943 -0.006982138 -0.020946413 -0.013964276 0.003491069 -0.08204012
0.057602637 -0.006982138 0.0017455345 -0.041892827 -0.022691948 0.0087276725 0.101241 0.0017455345
0.013964276 0.0052366033 -0.003491069 0.03491069 -0.026183017 0.0052366033 0.036656223 -0.09774993
0.003491069 0.0506205 0.052366033 0.01570981 -0.048874967 0.010473207 0.045383897 -0.08029459
-0.06458478 -0.04712943 -0.04712943 0.03141962 -0.040147293 -0.06633031 -0.09076779 0.017455345
0.03491069 0.061093707 -0.024437483 -0.08553119 0.006982138 0.0506205 0.07505798 -0.012218742
0.003491069 -0.043638363 0.006982138 0.01570981 0.04712943 -0.01570981 -0.0052366033 -0.06982138
0.012218742 0.041892827 0.024437483 -0.010473207 -0.017455345 -0.07680352 -0.041892827 0.06458478
0.06458478 -0.013964276 0.04712943 0.05411157 0.10473207 -0.048874967 0.03840176 0.03491069
-0.08029459 -0.033165157 -0.03491069 0.0960044 -0.036656223 0.01570981 -0.017455345 0.11869635
-0.020946413 -0.012218742 0.03491069 0.027928552 -0.0087276725 -0.013964276 0.052366033 0.040147293
0.029674087 0.0 0.06283924 -0.03141962 -0.043638363 -0.01920088 -0.05411157 -0.0506205
0.022691948 0.0960044 -0.03491069 -0.0052366033 0.003491069 -0.041892827 -0.017455345 0.040147293
0.08727673 -0.040147293 -0.020946413 0.017455345 0.013964276 0.061093707 -0.040147293 0.0017455345
-0.027928552 -0.03141962 -0.06633031 -0.03491069 -0.01920088 0.03141962 -0.040147293 -0.055857103
-0.022691948 -0.04712943 0.03141962 0.03840176 0.0087276725 0.09076779 -0.01920088 -0.07156692
0.06807584 -0.0087276725 -0.052366033 0.055857103 0.0052366033 -0.08378565 0.0052366033 -0.020946413
0.052366033 0.013964276 -0.026183017 0.043638363 0.03491069 0.03840176 -0.029674087 -0.03840176
-0.012218742 -0.029674087 -0.010473207 0.003491069 -0.045383897 0.06982138 -0.041892827 -0.0506205
0.013964276 0.026183017 0.12393295 0.027928552 -0.10298654 0.003491069 0.040147293 0.043638363
0.048874967 0.061093707 -0.0052366033 -0.14487936 0.03491069 0.0087276725 0.003491069 0.01920088
0.048874967 -0.04712943 -0.003491069 -0.017455345 0.0 -0.07156692 0.017455345 0.12567848
0.03840176 -0.08204012 0.059348173 -0.029674087 -0.003491069 0.010473207 0.0052366033 -0.012218742
0.07331245 -0.043638363 0.11345974 0.020946413 0.03141962 0.08029459 0.006982138 -0.01920088
0.06283924 -0.048874967 -0.045383897 -0.006982138 -0.08204012 0.045383897 0.033165157 -0.017455345
-0.08553119 -0.09425886 -0.0052366033 0.0 -0.03491069 0.043638363 0.033165157 -0.033165157

arith.constant17 f4 [400]
00000000: f94a d23d b0c5 da3e b545 383d 4bb4 ae3e
00000010: 218b 8f3e 7a6f fd3e 410a f73e be5d 083f
00000020: f75f d83e c483 103f 9e09 163f 9ae8 cd3e
00000030: a7e4 0b3f 2b25 f03e b89f f23e 45d2 913e
00000040: 9ac3 df3e 7e6a 003f 271f 393f 71d0 a13e
00000050: 8cec a63e c899 c53e 23ae 363f 5da2 383f
00000060: 0e81 e0bc fbab 973e 9b31 0e3d c344 043f
00000070: 8eaf 163f 2380 493f 463b e33e 02fa 173f
00000080: 97fa 343e 852d 613e 6263 373f 8dde 963e
00000090: 173f 7f3f d1b5 d73d c588 883f 969f 873d
000000a0: af46 f03e 63c9 e73d 2edf dd3e bd6c 913e
000000b0: b273 2e3f 90bf 9f3e c0fd 30be 61aa 033f
000000c0: 2ec5 b03e 1dad b83e 9a61 fb3e b949 763f
000000d0: 48b9 0e3e 4b1c 283f 5883 c5bd 30bb 653e
000000e0: e543 d53e 77ad e93e ad9b d73e bf6b f13e
000000f0: 956c 92bd b9a5 023f 0784 2b3f c242 843e
00000100: eca0 9d3e 413b fb3e 13fd 063f ebed d93d
00000110: 8ac2 b43e b75c 223f 3d41 b93e d29d e63c
00000120: 0192 ed3e 4f4f e03d 72ec a53e d708 d83e
00000130: 9b88 113e cbac f33e 7b00 0d3f b88a 8b3e
00000140: 681d ad3e 79bd 0c3f dc3a f83e 93ff d73e
00000150: 38f5 d13e 7cf0 453f 66ab 0b3f 8bf6 583e
00000160: 079e 843e 8145 753e b2b7 013f 9d36 103f
00000170: 54ba 8f3d 037c ea3e 0399 193d e2ca 103f
00000180: bd98 0e3d 2a64 d43e 0458 c33e fab6 9bbd
00000190: 0000 803f 0000 803f 0000 803f 0000 803f
000001a0: 0000 803f 0000 803f 0000 803f 0000 803f
000001b0: 0000 803f 0000 803f 0000 803f 0000 803f
000001c0: 0000 803f 0000 803f 0000 803f 0000 803f
000001d0: 0000 803f 0000 803f 0000 803f 0000 803f
000001e0: 0000 803f 0000 803f 0000 803f 0000 803f
000001f0: 0000 803f 0000 803f 0000 803f 0000 803f
00000200: 0000 803f 0000 803f 0000 803f 0000 803f
00000210: 0000 803f 0000 803f 0000 803f 0000 803f
00000220: 0000 803f 0000 803f 0000 803f 0000 803f
00000230: 0000 803f 0000 803f 0000 803f 0000 803f
00000240: 0000 803f 0000 803f 0000 803f 0000 803f
00000250: 0000 803f 0000 803f 0000 803f 0000 803f
00000260: 0000 803f 0000 803f 0000 803f 0000 803f
00000270: 0000 803f 0000 803f 0000 803f 0000 803f
00000280: 0000 803f 0000 803f 0000 803f 0000 803f
00000290: 0000 803f 0000 803f 0000 803f 0000 803f
000002a0: 0000 803f 0000 803f 0000 803f 0000 803f
000002b0: 0000 803f 0000 803f 0000 803f 0000 803f
000002c0: 0000 803f 0000 803f 0000 803f 0000 803f
000002d0: 0000 803f 0000 803f 0000 803f 0000 803f
000002e0: 0000 803f 0000 803f 0000 803f 0000 803f
000002f0: 0000 803f 0000 803f 0000 803f 0000 803f
00000300: 0000 803f 0000 803f 0000 803f 0000 803f
00000310: 0000 803f 0000 803f 0000 803f 0000 803f
00000320: d58c d4bd d531 b0be 5168 433e ad58 6c3d
00000330: c615 8abc b12d c53e a07e 56be 44f9 673e
00000340: 6c09 82bd 665b 933d b5c4 403e 6fda 11bf
00000350: 6d7e 3d3e 81a0 dcbd d0be af3e c6de 1d3e
00000360: 7913 1d3d 6240 15bc ede8 2fbe 622a c93d
00000370: ac1b 803d 2363 913e 8dfb 07be 7ca4 a93e
00000380: a2e4 8f3e a6b9 c83d 44f5 0f3d a69d 15be
00000390: 24e7 00be 9f19 193e 2f56 5e3d d173 20be
000003a0: 565d 093e 9ccd 5f3d a23d 003b 5dd4 04be
000003b0: 81b7 4cbc b2ae 7a3e af0f 22bf fb29 143d
000003c0: 9ebf 2b3e 1ecf 9f3e 07b8 703e a1da c7bd
000003d0: a9b5 333e e0f0 31be e38b aebe ff61 4f3d
000003e0: 90ca c13d b83c 2fbd 65cd 7ebe 0e08 d53e
000003f0: fc88 0d3f 35c8 0d3e 486f dfbe 5a50 66bd
0.10268206 0.4272895 0.044988353 0.34121928 0.28035834 0.49499112 0.4825001 0.5326804
0.42260715 0.5645106 0.58608425 0.40216523 0.5464577 0.46903357 0.4738748 0.28480735
0.4370392 0.50162494 0.7231316 0.3160434 0.32602346 0.38593888 0.7135946 0.72122747
-0.027405288 0.29623398 0.034715276 0.5166742 0.58861625 0.78711146 0.4438116 0.59365857
0.17673717 0.2199002 0.7163602 0.29466668 0.9970564 0.105327256 1.0666739 0.066222355
0.46928927 0.11317708 0.43334335 0.28403273 0.6814529 0.31200838 -0.17284298 0.5143185
0.34525436 0.36069575 0.49097902 0.9620624 0.13937867 0.6566817 -0.096441925 0.22434688
0.41653362 0.45640156 0.4211096 0.47152516 -0.07149617 0.5103412 0.6699833 0.25832182
0.30786836 0.49068645 0.5272991 0.106410824 0.35304672 0.6342272 0.36182585 0.028151426
0.46400455 0.10952627 0.32406956 0.42194244 0.14212267 0.47592768 0.5507886 0.27254272
0.33811498 0.5497661 0.48482406 0.42187175 0.410074 0.77320075 0.5455841 0.21187799
0.25901815 0.23952295 0.5067092 0.56333333 0.07017961 0.45797738 0.03749944 0.56559575
0.03481363 0.4148267 0.38153088 -0.076032594 1.0 1.0 1.0 1.0
1.0 1.0 1.0 1.0 1.0 1.0 1.0 1.0
1.0 1.0 1.0 1.0 1.0 1.0 1.0 1.0
1.0 1.0 1.0 1.0 1.0 1.0 1.0 1.0
1.0 1.0 1.0 1.0 1.0 1.0 1.0 1.0
1.0 1.0 1.0 1.0 1.0 1.0 1.0 1.0
1.0 1.0 1.0 1.0 1.0 1.0 1.0 1.0
1.0 1.0 1.0 1.0 1.0 1.0 1.0 1.0
1.0 1.0 1.0 1.0 1.0 1.0 1.0 1.0
1.0 1.0 1.0 1.0 1.0 1.0 1.0 1.0
1.0 1.0 1.0 1.0 1.0 1.0 1.0 1.0
1.0 1.0 1.0 1.0 1.0 1.0 1.0 1.0
1.0 1.0 1.0 1.0 1.0 1.0 1.0 1.0
-0.10378424 -0.3441302 0.19082762 0.057701755 -0.016856086 0.38511422 -0.20946741 0.22653681
-0.06349453 0.07195167 0.18825038 -0.5697393 0.18505259 -0.10772801 0.34325266 0.15417013
0.03834865 -0.009109588 -0.17178698 0.09822537 0.06255278 0.28395948 -0.13279553 0.33133304
0.2810412 0.09801035 0.035146013 -0.1461092 -0.12588173 0.1495118 0.05428141 -0.1566918
0.13414511 0.054639444 0.0019567986 -0.12971635 -0.012494923 0.24480703 -0.6330518 0.03617285
0.16772315 0.31212705 0.23507701 -0.09758497 0.17549767 -0.17377043 -0.340911 0.050630566
0.09462464 -0.042782515 -0.2488304 0.41607708 0.55287147 0.13845904 -0.43639588 -0.056228973

tfl.pseudo_qconst3 i1 [400, 24] scale=0.016835457 zero_point=0
00000000: fa02 ffff 050d 0820 c9fe 0b02 0911 1010
00000010: fe0c 1417 09fd fe05 06e3 fdfd e8f8 0e02
00000020: fd05 04fb 0709 ef09 00fa 04f1 e1ed fe20
00000030: 09fa 0c0a 0004 0b1e fbe5 0a14 0105 000b
00000040: 120c 01f3 ed0a 15fa 25ea 0000 02f7 0438
00000050: f9f4 f0e7 eeec efe9 05fe f2f0 f0f5 02f5
00000060: 121c feff fa11 0711 f602 eaf2 e6ec eeee
00000070: 0602 f2e6 e914 fc01 f2f8 948e eefa 00f1
00000080: d7d6 04fc fb04 ea02 fe04 fdec f3f1 0217
00000090: 230e fef7 e6fe e4d5 190c fc02 fefd fcfb
000000a0: fef5 0300 e717 fb0e fcfb 02f9 de0a 1601
000000b0: eaf9 fc02 fe04 f8fa f8f4 09f7 da0b 00fc
000000c0: f303 0609 e5f3 f023 e4ec ff01 f001 ff05
000000d0: 0606 0f05 f415 081b ffe9 ddd9 e7fe 16fb
000000e0: d7fc 00fb f904 0311 fbfd 0a02 f0f4 fc0f
000000f0: 2fe0 fbfe 0302 1c2f eee7 181b fd15 091b
-0.10101274 0.033670913 -0.016835457 -0.016835457 0.084177285 0.21886094 0.13468365 0.5387346
-0.9259501 -0.033670913 0.18519002 0.033670913 0.1515191 0.28620276 0.2693673 0.2693673
-0.033670913 0.20202547 0.33670914 0.3872155 0.1515191 -0.05050637 -0.033670913 0.084177285
0.10101274 -0.48822823 -0.05050637 -0.05050637 -0.40405095 -0.13468365 0.23569639 0.033670913
-0.05050637 0.084177285 0.06734183 -0.084177285 0.117848195 0.1515191 -0.28620276 0.1515191
0.0 -0.10101274 0.06734183 -0.25253186 -0.52189916 -0.3198737 -0.033670913 0.5387346
0.1515191 -0.10101274 0.20202547 0.16835457 0.0 0.06734183 0.18519002 0.5050637
-0.084177285 -0.45455733 0.16835457 0.33670914 0.016835457 0.084177285 0.0 0.18519002
0.3030382 0.20202547 0.016835457 -0.21886094 -0.3198737 0.16835457 0.3535446 -0.10101274
0.6229119 -0.37038004 0.0 0.0 0.033670913 -0.1515191 0.06734183 0.94278556
-0.117848195 -0.20202547 -0.2693673 -0.42088643 -0.3030382 -0.33670914 -0.28620276 -0.3872155
0.084177285 -0.033670913 -0.23569639 -0.2693673 -0.2693673 -0.18519002 0.033670913 -0.18519002
0.3030382 0.47139278 -0.033670913 -0.016835457 -0.10101274 0.28620276 0.117848195 0.28620276
-0.16835457 0.033670913 -0.37038004 -0.23569639 -0.43772188 -0.33670914 -0.3030382 -0.3030382
0.10101274 0.033670913 -0.23569639 -0.43772188 -0.3872155 0.33670914 -0.06734183 0.016835457
-0.23569639 -0.13468365 -1.8182293 -1.919242 -0.3030382 -0.10101274 0.0 -0.25253186
-0.69025373 -0.7070892 0.06734183 -0.06734183 -0.084177285 0.06734183 -0.37038004 0.033670913
-0.033670913 0.06734183 -0.05050637 -0.33670914 -0.21886094 -0.25253186 0.033670913 0.3872155
0.58924097 0.23569639 -0.033670913 -0.1515191 -0.43772188 -0.033670913 -0.47139278 -0.72392464
0.42088643 0.20202547 -0.06734183 0.033670913 -0.033670913 -0.05050637 -0.06734183 -0.084177285
-0.033670913 -0.18519002 0.05050637 0.0 -0.42088643 0.3872155 -0.084177285 0.23569639
-0.06734183 -0.084177285 0.033670913 -0.117848195 -0.5724055 0.16835457 0.37038004 0.016835457
-0.37038004 -0.117848195 -0.06734183 0.033670913 -0.033670913 0.06734183 -0.13468365 -0.10101274
-0.13468365 -0.20202547 0.1515191 -0.1515191 -0.6397474 0.18519002 0.0 -0.06734183
-0.21886094 0.05050637 0.10101274 0.1515191 -0.45455733 -0.21886094 -0.2693673 0.58924097
-0.47139278 -0.33670914 -0.016835457 0.016835457 -0.2693673 0.016835457 -0.016835457 0.084177285
0.10101274 0.10101274 0.25253186 0.084177285 -0.20202547 0.3535446 0.13468365 0.45455733
-0.016835457 -0.3872155 -0.58924097 -0.65658283 -0.42088643 -0.033670913 0.37038004 -0.084177285
-0.69025373 -0.06734183 0.0 -0.084177285 -0.117848195 0.06734183 0.05050637 0.28620276
-0.084177285 -0.05050637 0.16835457 0.033670913 -0.2693673 -0.20202547 -0.06734183 0.25253186
0.79126644 -0.5387346 -0.084177285 -0.033670913 0.05050637 0.033670913 0.47139278 0.79126644
-0.3030382 -0.42088643 0.40405095 0.45455733 -0.05050637 0.3535446 0.1515191 0.45455733
